HW13/student_best.ckpt (torch, 254803 bytes, 43 tensors)

conv1.weight f4 [48, 3, 7, 7]
0	0xbf0d7f68	-0.5527253
1	0xbf0d911e	-0.55299556
2	0xbe9393c4	-0.28823674
3	0x3e689dda	0.22716466
4	0x3ef05534	0.46940005
5	0x3dae71e4	0.08517817
6	0xbe49e4ac	-0.19716138
7	0xbf636c03	-0.8883669
8	0xbf69e55e	-0.9136561
9	0xbe2c36d4	-0.1681779
10	0x3f1bdc14	0.6088269
11	0x3f766c13	0.9625866
12	0x3f00b99b	0.5028321
13	0xbdfbc65f	-0.12293696
14	0xbf8ec52c	-1.1153922
15	0xbf768f21	-0.9631215
16	0xbd3763e5	-0.044773
17	0x3f66a169	0.9009004
18	0x3fa14a0d	1.2600724
19	0x3f03c566	0.5147308
20	0xbebe4a58	-0.37166095
21	0xbf7b0be6	-0.9806503
22	0xbf3fb497	-0.74884933
23	0x3b3dffba	0.0028991536
24	0x3f836f4a	1.0268338
25	0x3f8a5d19	1.0809661
26	0x3e9de7f2	0.30841023
27	0xbece225b	-0.40260586
28	0xbf0ec231	-0.5576506
29	0xbeb91521	-0.36148933
30	0x3e2e06e0	0.1699481
31	0x3f5d5ee1	0.864729
32	0x3f50a1dd	0.81496984
33	0x3d533268	0.051561743
34	0xbef9d1c4	-0.4879285
35	0xbeb3a3ad	-0.35085812
36	0xbe67e66b	-0.22646491
37	0x3d91a664	0.071118146
38	0x3eb2299c	0.3479737
39	0x3e841ca6	0.25803107
40	0xbe369127	-0.17828809
41	0xbee50c68	-0.44736028
42	0x3d998520	0.07496095
43	0x3c81dea2	0.01585323
44	0x3bddf993	0.0067741363
45	0xbb5330c8	-0.003222512
46	0x3cd6be43	0.02621377
47	0xbe73092d	-0.23733969
48	0xbe88070c	-0.26567876
49	0xbf6a1114	-0.9143231
50	0xbf84b75e	-1.0368459
51	0xbf139dcb	-0.5766265
52	0x3d5f143b	0.054462653
53	0x3ed811d2	0.42201096
54	0x3e5b8679	0.21438016
55	0xbda1ee45	-0.079067744
56	0xbfaa7b7f	-1.3318938
57	0xbfa5fdfb	-1.2968134
58	0xbee078e8	-0.43842244
59	0x3f1d64eb	0.61482114
60	0x3f8e4e66	1.1117675
61	0x3f2264d4	0.634351
62	0x3c972d0d	0.0184541
63	0xbfc1097e	-1.5081022
64	0xbfa4e65a	-1.2882798
65	0xbe02ee03	-0.12786107
66	0x3f8264fb	1.0187067
67	0x3fc9bab4	1.5760102
68	0x3f41378e	0.75475395
69	0xbe4fd18e	-0.20294783
70	0xbfa58c28	-1.2933397
71	0xbf846150	-1.0342197
72	0x3de622e9	0.11237127
73	0x3fa40044	1.2812581
74	0x3fb7b8c7	1.4353265
75	0x3f0fc40b	0.5615851
76	0xbec96c4e	-0.39340442
77	0xbf63b4ea	-0.8894793
78	0xbefb70f6	-0.4910962
79	0x3eadba30	0.33931112
80	0x3f85b8ac	1.0446982
81	0x3f912b18	1.1341276
82	0x3ebde2c5	0.37087074
83	0xbee9890d	-0.45612374
84	0xbf0bc859	-0.5460258
85	0xbe3b197b	-0.18271439
86	0x3e0def19	0.1386074
87	0x3f0fe0bf	0.5620231
88	0x3f071358	0.5276389
89	0xbcee45a0	-0.029085934
90	0xbec9f531	-0.3944488
91	0x3d94ab93	0.07259288
92	0x3cb4fce5	0.022093246
93	0x3db0276c	0.08601269
94	0x3e8333a3	0.25625333
95	0x3e0c0436	0.13673481
96	0xbd94f36b	-0.07272991
97	0xbe65baca	-0.22434536
98	0xbf050b53	-0.51970404
99	0xbf4f710b	-0.81031865
100	0xbefc9fa0	-0.49340534
101	0x3e3336f3	0.1750143
102	0x3f0f567f	0.5599136
103	0x3e8051fc	0.2506255
104	0xbd11f747	-0.035636213
105	0xbf87f211	-1.0620748
106	0xbf9c0715	-1.2189661
107	0xbef39648	-0.47575593
108	0x3f0f2860	0.5592098
109	0x3f8e37cb	1.1110777
110	0x3f40397e	0.75087726
111	0xbd5321b6	-0.05154582
112	0xbf946878	-1.1594381
113	0xbf903067	-1.1264771
114	0xbe546418	-0.20741308
115	0x3f62a76d	0.8853672
116	0x3fad86b4	1.3556733
117	0x3f303313	0.68827933
118	0xbe90de9d	-0.2829484
119	0xbf93b77d	-1.1540371
120	0xbf6699c9	-0.9007841
121	0xbcbea767	-0.023273183
122	0x3f8c5191	1.0962392
123	0x3fb672c6	1.4253776
124	0x3f0f2c31	0.55926806
125	0xbf0bdd83	-0.54634875
126	0xbf11591b	-0.5677659
127	0xbf001652	-0.5003406
128	0x3e521c43	0.20518593
129	0x3f6e5a85	0.9310687
130	0x3f82673c	1.0187755
131	0x3e620119	0.22070731
132	0xbf09a487	-0.53766674
133	0xbe1f2ef1	-0.1554525
134	0xbe13cdd3	-0.14433984
135	0x3e12148b	0.14265649
136	0x3f03fe7a	0.51560175
137	0x3f000f32	0.50023186
138	0xbc9ef300	-0.01940298
139	0xbefc2248	-0.49244905
140	0x3ecd1d24	0.40061295
141	0x3e280288	0.16407216
142	0x3d47ef9f	0.048812505
143	0x3e104206	0.14087686
144	0x3df3a8c4	0.11897424
145	0xbdf3f4b8	-0.11911911
146	0xbe4bafe2	-0.19891313
147	0x3f112ab1	0.56705767
148	0x3e4a4372	0.19752291
149	0xbf0ec412	-0.5576793
150	0xbea45a4e	-0.32100147
151	0xbefeec01	-0.49789432
152	0xbf0b8132	-0.5449401
153	0xbf4d3d18	-0.80171347
154	0x3f31dbe9	0.6947618
155	0xbea1450d	-0.31497994
156	0xbf68c815	-0.909303
157	0xbec225e8	-0.37919545
158	0x3b50c19c	0.0031853681
159	0xbdacaccf	-0.08431398
160	0xbec0f712	-0.376885
161	0x3e68fa9f	0.22751854
162	0xbfac905d	-1.3481556
163	0xbfb5c1f0	-1.419981
164	0xbf2f93c7	-0.68584865
165	0xbebf1931	-0.37323907
166	0x3cf8f38d	0.030389572
167	0xbd6ec34f	-0.05829173
168	0x3d8966a4	0.0670903
169	0xbf73993f	-0.9515571
170	0xbf98a09e	-1.1924016
171	0xbcf3252e	-0.029680815
172	0x3ede87f0	0.43463087
173	0x3ed689bd	0.4190196
174	0x3ee74226	0.45167655
175	0xbd95625f	-0.072941534
176	0xbf05c7ed	-0.5225819
177	0xbf07905c	-0.5295465
178	0x3e48d820	0.19613695
179	0x3e6cd647	0.23128615
180	0xbe025765	-0.12728651
181	0xbe31639e	-0.17323157
182	0xbdaf81c0	-0.0856967
183	0xbe79d1c6	-0.24396428
184	0x3e3a787f	0.18210028
185	0x3e2642e0	0.16236448
186	0xbe28218f	-0.16419052
187	0xbf13a4b8	-0.57673216
188	0xbee7fbfe	-0.45309442
189	0x3e43e157	0.19128929
190	0xbcb160af	-0.021652548
191	0x3cfd89fe	0.030949589
192	0xbdee6156	-0.11639659
193	0xbf2b9288	-0.67020464
194	0xbf524237	-0.82132286
195	0xbe98f2f1	-0.2987285
196	0x3fae5067	1.3618287
197	0x3f864a63	1.0491451
198	0x3f03fdf1	0.5155936
199	0x3f70debc	0.94089866
200	0x3f86dca4	1.0536084
201	0x3fb66659	1.4249984
202	0x3fb2106c	1.3911262
203	0x3fab04c1	1.3360826
204	0x3f16b6b4	0.5887253
205	0x3eca21ec	0.39479005
206	0x3f7a60ae	0.9780377
207	0x3fba68c6	1.4563224
208	0x3fc4fe53	1.5390114
209	0x3fb9c27a	1.4512475
210	0x3f69c4a2	0.9131566
211	0xbec1208f	-0.37720153
212	0xbe473b8f	-0.19456314
213	0x3f1e9d71	0.61958987
214	0x3f742ea3	0.9538366
215	0x3fb3407d	1.4004055
216	0x3fb30a7b	1.3987573
217	0x3f61c844	0.88196206
218	0x3d9aef1b	0.07565137
219	0xbe2a37bc	-0.16622823
220	0x3f8a258f	1.0792712
221	0x3fc86639	1.5656196
222	0x3fc7fea0	1.562458
223	0x3fc0f41e	1.5074499
224	0x3f4eb2a6	0.80741346
225	0x3ef63abb	0.48091683
226	0x3eda8b55	0.42684427
227	0x3f9d861e	1.2306554
228	0x3fa93469	1.3219119
229	0x3f8c8a47	1.0979699
230	0x3f529277	0.8225474
231	0x3f764d0c	0.96211314
232	0x3efaa0df	0.4895086
233	0x3f59e45d	0.8511408
234	0x3f9280b1	1.1445524
235	0x3f7b5f6c	0.9819248
236	0x3f2c5d47	0.6732983
237	0x3e00b2b2	0.12568167
238	0x3f915962	1.1355402
239	0x3f3199d8	0.6937537
240	0x3f5728cc	0.84046626
241	0x3f37aa5b	0.71744317
242	0x3eb9b830	0.36273336
243	0x3c00869d	0.007844594
244	0xbe5b12e1	-0.2139392
245	0xbfa9b6ca	-1.3258908
246	0xbf5dfbaa	-0.86712134
247	0xbe74d5ea	-0.23909727
248	0xbdc53313	-0.09628882
249	0xbf212cfe	-0.6295928
250	0xbf363643	-0.71176547
251	0xbf9e524d	-1.2368866
252	0xbf7040af	-0.938487
253	0xbe700c44	-0.23442179
254	0x3e184aa9	0.1487223
255	0x3dccf4f6	0.1000766

bn1.weight f4 [48]
0	0x3fbc858d	1.4728256
1	0x3f11648d	0.56794053
2	0x404e4c23	3.223397
3	0x3f49acff	0.78779596
4	0x3f3d5380	0.73955536
5	0x40755b3c	3.8336935
6	0x4054beb6	3.32414
7	0x3ede0abe	0.4336757
8	0x3fad495a	1.353801
9	0x3f0480ca	0.51759017
10	0x3f79adb9	0.97530705
11	0x3f2dde1e	0.6791705
12	0x3f6a9d7f	0.9164657
13	0x3ff8e18d	1.9443833
14	0x3fbc5086	1.4712074
15	0x3f244912	0.64173996
16	0x3ffe0935	1.984656
17	0x3f48550d	0.7825478
18	0x3fac902b	1.3481497
19	0x400e1161	2.2198107
20	0x3fcdb2a7	1.6070145
21	0x3f1f06a9	0.6211954
22	0x3faeb4c1	1.3648912
23	0x4026a923	2.6040733
24	0x3fd4e555	1.6632487
25	0x3ff85c0d	1.9403092
26	0x40ad811f	5.422012
27	0x3fc2441b	1.5177034
28	0x3f51c7ad	0.81945306
29	0x4018ab8a	2.38547
30	0x40986053	4.7617583
31	0x3fb780c6	1.4336174
32	0x3fdac7db	1.7092241
33	0x40124ba3	2.2858665
34	0x3eb7225f	0.3576841
35	0x405f2e74	3.4872103
36	0x400a0185	2.1563427
37	0x3f83c6c1	1.029503
38	0x40350b73	2.8288238
39	0x405f2a54	3.4869585
40	0x3fcf059c	1.6173587
41	0x401687a2	2.3520284
42	0x3e9a0ea5	0.30089298
43	0x4017b773	2.3705719
44	0x40859208	4.174076
45	0x403de95f	2.9673688
46	0x402d1be6	2.7048278
47	0x405efc76	3.484159

bn1.bias f4 [48]
0	0x3f009b9b	0.50237435
1	0x3f978ea7	1.1840409
2	0xbd5533ac	-0.05205123
3	0x3f5d1a35	0.86368114
4	0x3f690c4e	0.910344
5	0x3c9fa32c	0.019486986
6	0xbdb3a949	-0.08772523
7	0x3ff69996	1.9265621
8	0x3edc881b	0.4307259
9	0x3fb61b6c	1.4227118
10	0x3f40de87	0.7533955
11	0x3f81d3ec	1.0142798
12	0x3f36607c	0.71240973
13	0x3e7922c2	0.24329665
14	0x3ea2f36f	0.3182635
15	0x3f93f01b	1.1557649
16	0x3e814f85	0.2525598
17	0x3f64e298	0.89408255
18	0xbeee4533	-0.4653717
19	0x3ea78256	0.32716626
20	0x3ed9f868	0.4257233
21	0x3f8f88dd	1.1213642
22	0xbef27be7	-0.47360155
23	0xbe99d937	-0.30048534
24	0xbe65b270	-0.2243135
25	0x3ec18034	0.37793124
26	0x3d98c96c	0.07460293
27	0x3f1557c1	0.58337027
28	0x3f62d3c9	0.8860441
29	0xbe398c89	-0.18120016
30	0xbd66b433	-0.056324195
31	0xbed5ecc4	-0.417822
32	0x3ed8909d	0.4229783
33	0x3dd0404e	0.10168515
34	0x4003aa7a	2.05728
35	0x3d03e015	0.032196123
36	0x3e29cb91	0.1658156
37	0x3f1c3d92	0.6103145
38	0x3d20d605	0.039266605
39	0x3e3068ef	0.17227529
40	0x3ec8fd92	0.3925596
41	0xbe4a8299	-0.19776382
42	0x3ffb46e1	1.9631006
43	0x3e50e8f8	0.2040137
44	0x3cedd8f5	0.029034117
45	0xbca4bbed	-0.020109141
46	0xbe549277	-0.20758997
47	0x3e90bec1	0.28270534

bn1.running_mean f4 [48]
0	0xbf88ef2f	-1.0697993
1	0x3f98ac40	1.1927567
2	0x3e88e39e	0.26736158
3	0x3fbb644e	1.4639986
4	0x40848cc5	4.142184
5	0x3eac80a4	0.33691895
6	0xbd953d46	-0.072870776
7	0x3f92b6fe	1.1462095
8	0xbf9cc167	-1.2246522
9	0x403483e3	2.8205497
10	0xbf6f30f2	-0.9343406
11	0x412af738	10.685356
12	0xc04674b9	-3.1008742
13	0xbf805499	-1.0025817
14	0x3ec1f01c	0.378785
15	0x3ebf1ff3	0.37329063
16	0x3f7408c9	0.95325905
17	0xc1216b2e	-10.088667
18	0xbe0c079b	-0.13674776
19	0x3f1e0e04	0.61740136
20	0x3f2e25e7	0.68026584
21	0xc22b688a	-42.85209
22	0xc1845f5f	-16.546568
23	0x3f7b3555	0.98128253
24	0x403767e1	2.8657153
25	0x3f1129c6	0.56704366
26	0x3e80e8eb	0.25177702
27	0x3e18aaa2	0.14908841
28	0x3d84a349	0.06476457
29	0x3e3988f3	0.18118648
30	0x3f21f6de	0.63267314
31	0xbf5b4560	-0.8565273
32	0xbeff7099	-0.49890593
33	0x3e94f2c0	0.29091454
34	0xc099762c	-4.7956753
35	0x3ece27e4	0.4026481
36	0xc19940be	-19.156612
37	0x412b803a	10.718805
38	0x3ccd3de4	0.025053926
39	0x3e8029fb	0.2503203
40	0x3ecf5412	0.40493828
41	0x3edc06fc	0.4297408
42	0x412a6c48	10.651436
43	0xbf28b4ac	-0.65900683
44	0x3efdad28	0.4954617
45	0x3ea950b5	0.33069387
46	0xbea763c0	-0.3269329
47	0x3d12d80e	0.035850577

bn1.running_var f4 [48]
0	0x432f4b6a	175.29459
1	0x438f5445	286.65836
2	0x424ab231	50.674015
3	0x42695b96	58.33944
4	0x43b541f6	362.51532
5	0x43a3322b	326.39194
6	0x43fae156	501.76044
7	0x418cf947	17.621717
8	0x428b72ce	69.72423
9	0x42302775	44.038532
10	0x427fbc92	63.93415
11	0x43b460d6	360.75653
12	0x429947dc	76.64035
13	0x43173118	151.19177
14	0x428fdc5a	71.930374
15	0x43c65aa1	396.70804
16	0x43d73043	430.37704
17	0x44137af1	589.92096
18	0x4162ebf4	14.182606
19	0x42a852c5	84.16166
20	0x425a1454	54.51985
21	0x45a7ef2c	5373.8965
22	0x4574a551	3914.3323
23	0x438a353b	276.41586
24	0x447628da	984.6383
25	0x42a02641	80.074715
26	0x43b2ad35	357.35318
27	0x42f0b117	120.34588
28	0x42f1c04b	120.87557
29	0x4306d93e	134.8486
30	0x430b2c89	139.17397
31	0x430423df	132.14012
32	0x44065bd9	537.4351
33	0x4326effc	166.93744
34	0x43af9ff2	351.24957
35	0x42818076	64.7509
36	0x44569920	858.3926
37	0x4486fd4d	1079.9156
38	0x41fc5c9b	31.545218
39	0x426646c8	57.569122
40	0x43cddba5	411.71597
41	0x4370aab8	240.66687
42	0x45a5df48	5307.91
43	0x41f79a4f	30.950346
44	0x434089b2	192.53787
45	0x41ca131a	25.259327
46	0x428d5635	70.66837
47	0x42418fb2	48.390327

layer1.0.weight f4 [48, 1, 3, 3]
0	0x3dc44411	0.09583295
1	0x3e7d578f	0.24740432
2	0x3ea1ccf3	0.31601676
3	0x3efbbb67	0.49166414
4	0xbfde6668	-1.7375002
5	0xc0642bd6	-3.5651755
6	0x3c83e86b	0.016102036
7	0xbf20d432	-0.62823784
8	0xbee5f3c1	-0.44912532
9	0x3f916687	1.1359414
10	0x3f154e95	0.5832303
11	0x3ef6f413	0.4823309
12	0x3f384abe	0.7198905
13	0xbf0d3dae	-0.5517224
14	0xbf516d20	-0.81807137
15	0x3f183856	0.5946096
16	0xbf43c235	-0.7646821
17	0xbf9f18da	-1.2429459
18	0xbed641a9	-0.4184697
19	0xbe8dc978	-0.2769277
20	0x3ef739d8	0.4828632
21	0x3dc32f53	0.09530511
22	0xc0416373	-3.021695
23	0xbfa06b44	-1.2532735
24	0x3edc6fea	0.43054134
25	0x3f0505a7	0.5196175
26	0x3e57e92e	0.21085045
27	0x3eab3d27	0.33445093
28	0xbfb7bd9b	-1.4354738
29	0xbe8dd484	-0.277012
30	0x3e94741f	0.28994843
31	0xbf75ec32	-0.9606353
32	0xbebbd9e2	-0.3668967
33	0x3f3fb7cf	0.74889845
34	0x3f1f4ddf	0.62228197
35	0x3f95f929	1.1716663
36	0x3cec5a2d	0.028851593
37	0xbf75c1ac	-0.95998645
38	0xbf8d6f39	-1.1049567
39	0x3efd21c3	0.4943982
40	0xbec39783	-0.38201532
41	0xbf15d1bb	-0.5852315
42	0x3f9c7045	1.2221762
43	0x3f667a61	0.90030485
44	0x3f1b4b77	0.60662025
45	0x3f6b9509	0.92024285
46	0x3ee8a373	0.45437202
47	0x3f80b7e2	1.0056117
48	0xbd49ed10	-0.049298346
49	0x3fb7c5ff	1.4357299
50	0x3f513283	0.817177
51	0x3f144328	0.5791497
52	0x3f54d44d	0.83136445
53	0x3f26fb12	0.6522685
54	0xbf17b74f	-0.5926408
55	0xbd8f0a26	-0.069843575
56	0xbe87482a	-0.26422244
57	0x3d360b88	0.04444459
58	0xbf81fab7	-1.0154637
59	0xbf35a098	-0.7094817
60	0x3eabddf1	0.33567765
61	0xbfe76394	-1.8077264
62	0xbfbf2661	-1.4933587
63	0x3f17dd9f	0.5932254
64	0x3eddd3e9	0.43325737
65	0x3f12b3a5	0.57305366
66	0x3ebe5470	0.37173796
67	0xbc5575f9	-0.013028615
68	0xbf1f8c70	-0.62323666
69	0x3f32d105	0.6985019
70	0xbeb62296	-0.35573262
71	0xbff9685f	-1.9484977
72	0x3f11d44d	0.5696457
73	0x3f351289	0.7073141
74	0x3f203c3b	0.62591904
75	0x3f44ebe2	0.7692243
76	0xbeb3ea98	-0.35139918
77	0xbf29e9f4	-0.6637261
78	0x3f251335	0.6448243
79	0xbfa8fe3c	-1.3202586
80	0xbf5de2c7	-0.8667416
81	0xbf07f7bb	-0.5311238
82	0xbecc562c	-0.39909494
83	0xbf9ec2b1	-1.2403165
84	0x3f12be92	0.5732204
85	0x3eefe303	0.46852884
86	0xbf2cf25f	-0.6755733
87	0x3f8d9b9a	1.1063111
88	0x3f6fe38c	0.93706584
89	0xbf216aaf	-0.6305341
90	0xbf2087a0	-0.6270695
91	0x3e94b56d	0.29044667
92	0x3f3e50bb	0.74341935
93	0xbf4cbfae	-0.7997998
94	0x3f0d92fc	0.55302405
95	0x3fcb1f1e	1.5868871
96	0xbf5775af	-0.84163946
97	0xbf22c631	-0.63583666
98	0xbdd99d3c	-0.10625693
99	0x3f95fe17	1.1718167
100	0x3f818607	1.0119027
101	0x3f14c6d5	0.58115894
102	0x3ec78118	0.38965678
103	0xbe2ddcc7	-0.16978751
104	0xbed3ee9e	-0.41392988
105	0xbe8d367f	-0.2758064
106	0xbf79e1ab	-0.97609967
107	0xbf84e70d	-1.0383011
108	0xbedfcd75	-0.4371144
109	0xbe5d6812	-0.21621731
110	0xbf83118d	-1.0239731
111	0xbdde1c36	-0.108452246
112	0x3fa5f05a	1.2963974
113	0x3f30d483	0.6907427
114	0xbf85e044	-1.0459065
115	0x3f87abc7	1.0599297
116	0x3eb729b3	0.35774
117	0x3eb44798	0.35210872
118	0xbf83a0d3	-1.0283455
119	0xbf7f570b	-0.9974219
120	0x3f4ab9cc	0.79189754
121	0xbeef816e	-0.46778435
122	0xbf9543ae	-1.1661279
123	0x3f768f07	0.9631199
124	0x3f3c5edf	0.7358226
125	0xbe03d4c8	-0.12874138
126	0xbd519022	-0.051162846
127	0xbf505747	-0.81383175
128	0x3f0ddf6d	0.55419046
129	0xbf8c96fe	-1.0983579
130	0xbf8e6992	-1.1125968
131	0x3f22b9ba	0.63564646
132	0x3f43d65c	0.7649896
133	0x3f078d18	0.52949667
134	0x3f31583b	0.69275254
135	0x3ef5b42e	0.4798903
136	0x3e20c025	0.15698297
137	0x3eab8b78	0.33504844
138	0x3f00c00e	0.5029305
139	0x4030e1af	2.7637746
140	0x3f55f16e	0.8357152
141	0x3f89cbf1	1.0765363
142	0x3f4a6e15	0.7907422
143	0x3bc50458	0.0060124807
144	0xbf5e8eda	-0.86936724
145	0xbf179777	-0.5921549
146	0xbf0058ac	-0.501353
147	0xbfdbf271	-1.7183362
148	0xbfb8625d	-1.4405018
149	0x3f3d5e02	0.7397157
150	0xbf5966b2	-0.84922326
151	0xbf0a4b70	-0.5402136
152	0x3ee25146	0.44202632
153	0x3f2b77ec	0.6697986
154	0x3fabc92d	1.3420769
155	0x3f2f61db	0.6850869
156	0xbe806ac3	-0.25081453
157	0xbea9e43a	-0.33181936
158	0x3cbd9448	0.023141995
159	0xbf1f88b0	-0.62317944
160	0xbf94bb12	-1.1619589
161	0xbeaf802c	-0.34277475
162	0x3f0357ee	0.51306045
163	0x3f4bed66	0.79659116
164	0x3f45d1ff	0.77273554
165	0x3efaed3a	0.49009115
166	0x3fc47543	1.5348285
167	0x3f7bb43c	0.9832189
168	0x3eb3b65f	0.35100076
169	0x3f627ccd	0.8847168
170	0x3f17d9da	0.5931679
171	0xbf5abc46	-0.8544353
172	0xbdfbd7a8	-0.122969925
173	0xbeee15f0	-0.46501112
174	0x3c4d3bc8	0.01252646
175	0x4012b809	2.2924826
176	0x3ec657f5	0.3873898
177	0xbf353fdd	-0.7080057
178	0x3f75d991	0.96035105
179	0x3e85e4d0	0.26151133
180	0x3e934af1	0.28768113
181	0x3f2e7934	0.6815369
182	0x3fa41900	1.2820129
183	0x3d0c281a	0.03421793
184	0x3fbdd935	1.4831911
185	0x3f1f9982	0.6234361
186	0x3f6d0096	0.9257902
187	0x3dd9cde5	0.106349744
188	0x3f927be5	1.144406
189	0xbffe4ec4	-1.9867787
190	0xbf2c1e4c	-0.6723373
191	0x3ef1c4dc	0.47220504
192	0xbfdd45ad	-1.7286888
193	0xbfa030a5	-1.2514845
194	0xbce2935b	-0.027658155
195	0x3d1917fb	0.037376385
196	0xbd45753d	-0.04820751
197	0x3f3149b1	0.6925307
198	0x3e8f437a	0.27981168
199	0x3fa85235	1.3150088
200	0xbe324d59	-0.17412318
201	0xbd41158c	-0.04713969
202	0x3ff7d107	1.9360665
203	0x3feaee5e	1.8353994
204	0xbd7d6e8f	-0.061873015
205	0xbea57a4d	-0.3231987
206	0xbe954e6b	-0.2916139
207	0xbf427c74	-0.7597115
208	0xbe86a813	-0.26300105
209	0xbeb45cc3	-0.35227022
210	0xbf209cd0	-0.62739277
211	0xbfd59726	-1.6686752
212	0xbe8f0905	-0.2793657
213	0xbfbd0a3a	-1.4768746
214	0xbf358341	-0.709034
215	0xbf339bff	-0.70159906
216	0x3f8d1ac8	1.1023798
217	0xbf0e4d72	-0.5558692
218	0xbe8509ae	-0.25983948
219	0x3f0e930c	0.55693126
220	0x3eb2d957	0.34931442
221	0x3ef3689e	0.47540754
222	0x3e369c71	0.17833115
223	0x3f2a9856	0.66638696
224	0x3fea739b	1.831653
225	0x3eed8a87	0.4639475
226	0xbf44b6e9	-0.768416
227	0xbfa5af64	-1.294415
228	0x3f733ab8	0.9501147
229	0x3ef497bd	0.47772017
230	0xbf91e95a	-1.1399338
231	0x3e899218	0.26869273
232	0x3f60caf3	0.87809676
233	0xbe9a5324	-0.30141556
234	0x3f0c9be1	0.5492535
235	0x3f201659	0.625341
236	0x3ea261b0	0.31715155
237	0x3e67148a	0.22566429
238	0x40184393	2.3791244
239	0x3eb7d234	0.3590256
240	0x3f37ec1c	0.7184465
241	0x3f40c2e2	0.7529737
242	0x3f891b42	1.0711443
243	0xbef1f2d6	-0.47255582
244	0xbf4261c2	-0.75930417
245	0xbf83466e	-1.0255868
246	0xbf1687c6	-0.58800924
247	0xbd180bbd	-0.03712057
248	0x3f122667	0.5708985
249	0xbefc1d6e	-0.49241203
250	0x3f5aa8c6	0.8541378
251	0x3fae0547	1.359536
252	0x3e04cecf	0.12969516
253	0x3f2de974	0.67934346
254	0x3efab62c	0.4896711
255	0xbf8ea24f	-1.1143283

layer1.0.bias f4 [48]
0	0xbeba823e	-0.36427492
1	0x3e151c3a	0.14561549
2	0xbedaa2a5	-0.42702213
3	0x3f82aafb	1.0208429
4	0x3ee17023	0.44030866
5	0xbe6ee179	-0.23328198
6	0x3f89bd99	1.0760986
7	0x3f3c4498	0.73542166
8	0x3eb5b45f	0.35489175
9	0xbf52fa06	-0.82412755
10	0x3d2dfc42	0.0424769
11	0xbfa77e91	-1.30855
12	0x3f5a23a9	0.85210663
13	0xbd0302c1	-0.03198505
14	0xbe863d64	-0.26218712
15	0xbe4af602	-0.19820407
16	0x3d98f35f	0.07468294
17	0xbfceceee	-1.61569
18	0xbf224a90	-0.63395023
19	0xbedfdf4c	-0.4372505
20	0xbe8822d8	-0.26589084
21	0xbe854c7d	-0.26034918
22	0x3e038df2	0.12847117
23	0x3d2a1c5b	0.041530948
24	0x3f25ec33	0.64813536
25	0xbf836a6b	-1.0266851
26	0x3eb5e3a3	0.35525236
27	0x3e111961	0.14169838
28	0x3f7f65e6	0.9976486
29	0x3efafe0b	0.49021944
30	0xbf14df47	-0.58153194
31	0xbda4eaec	-0.0805262
32	0x3e96d2d5	0.29457727
33	0x3f0c0a28	0.54703
34	0xbf69f0eb	-0.91383237
35	0x3dbb3ded	0.09142671
36	0xbe3e0f3d	-0.185605
37	0x3f83fdf9	1.0311881
38	0xbf23a1a9	-0.6391855
39	0x3eb7f30a	0.35927612
40	0xbc0065b0	-0.007836744
41	0x3ede2d90	0.43394136
42	0xbf09a938	-0.5377383
43	0xbebd572a	-0.36980563
44	0x3f2b5e43	0.66940707
45	0x3f37a89e	0.71741664
46	0x3f19810f	0.5996255
47	0x3f0c8af3	0.5489952

layer1.1.weight f4 [48]
0	0x3ffe677a	1.9875329
1	0x3f54ec08	0.83172655
2	0x3f89dac9	1.0769893
3	0x3f3f4d91	0.7472773
4	0x3f6a4f04	0.9152682
5	0x3fb593ac	1.4185691
6	0x3fd6a7ae	1.6769922
7	0x3f802a74	1.0012956
8	0x3f6d7aeb	0.9276568
9	0x3f558533	0.8340637
10	0x3f806174	1.002974
11	0x3f7182c0	0.94340134
12	0x3f9d17f3	1.2272934
13	0x3f92f0d3	1.1479744
14	0x3f79b981	0.9754868
15	0x3fb3b586	1.4039772
16	0x3fb1fc60	1.3905144
17	0x3fa04d1e	1.2523534
18	0x3f897d6e	1.0741403
19	0x3f160c8b	0.5861289
20	0x3f59c243	0.85062045
21	0x3f958b6f	1.1683177
22	0x3f2026c6	0.62559164
23	0x3f82b7ca	1.0212338
24	0x3fa2458f	1.2677478
25	0x3f770515	0.9649213
26	0x3fc4d7b9	1.5378333
27	0x3f9c917d	1.22319
28	0x3f85f641	1.0465776
29	0x3f7d92a4	0.9905188
30	0x3f2fed15	0.68721133
31	0x3f76fe23	0.9648153
32	0x3fe1d5ba	1.7643349
33	0x3f340b42	0.7032968
34	0x3f92a5d2	1.1456854
35	0x3f236561	0.63826567
36	0x3f290f36	0.66038835
37	0x3f98e33a	1.1944344
38	0x3f377d22	0.7167531
39	0x3fd64d77	1.674239
40	0x3ff9285c	1.9465442
41	0x3f983b2b	1.1893057
42	0x3faeec88	1.3665934
43	0x3f83540c	1.0260024
44	0x3f7b08e9	0.9806047
45	0x3f99247a	1.1964257
46	0x3fd16183	1.6357883
47	0x3f604734	0.8760865

layer1.1.bias f4 [48]
0	0xbe97e6d1	-0.29668286
1	0x3fb68486	1.4259193
2	0x40372f59	2.8622649
3	0x3fb38dd2	1.4027655
4	0x3fc3d72c	1.530004
5	0x3fc13a19	1.5095855
6	0x3e750578	0.23927867
7	0x3f404705	0.7510837
8	0x40ab1060	5.345749
9	0x3f5f0992	0.8712398
10	0x3f598280	0.8496475
11	0x3f141104	0.57838464
12	0x3e7067c5	0.23477085
13	0x3f3024db	0.68806237
14	0x3f8bdcd6	1.0926769
15	0x3f824c79	1.0179588
16	0x3ea21c04	0.31662
17	0xbd036d80	-0.03208685
18	0x3fe08060	1.7539177
19	0x3f204644	0.62607217
20	0x3f57b528	0.842608
21	0x3dba62a3	0.09100845
22	0x3f14aad2	0.5807315
23	0x403e5952	2.9742017
24	0xbf24394d	-0.64149934
25	0x3f883a33	1.0642761
26	0x3fd49edf	1.6610984
27	0x3f90973b	1.1296152
28	0x3f4bfb69	0.79680496
29	0x3fe47f66	1.7851379
30	0x40ce8841	6.4541326
31	0x3f4c8cb9	0.79902226
32	0xbe31534c	-0.17316931
33	0x3f7d1c6d	0.988715
34	0x3ee89277	0.45424244
35	0x4042cc2e	3.0437121
36	0x3e2771e1	0.16352035
37	0x3b87bce6	0.0041423915
38	0x407f5632	3.989636
39	0x3e6bca1a	0.23026314
40	0xbeebb50d	-0.46036568
41	0x3f40a5a9	0.7525278
42	0x3c17b2f9	0.009258979
43	0x3fe23f50	1.7675571
44	0x3f97fc90	1.1873951
45	0x3fcd3fdf	1.6035117
46	0x3e1f2cf5	0.15544493
47	0x3fe38f2c	1.7778068

layer1.1.running_mean f4 [48]
0	0xc102b11a	-8.168238
1	0x3e9a66c6	0.30156535
2	0xc114dead	-9.304364
3	0x3f8cc0fc	1.0996394
4	0x3f29f94a	0.6639601
5	0x418237b8	16.277206
6	0xc11c76cb	-9.779002
7	0x3e19b15e	0.15009066
8	0x3f0a01f1	0.5390921
9	0xbfb31db9	-1.3993446
10	0x3ec4983d	0.383974
11	0xbf7fcfa9	-0.9992624
12	0x3fc243d4	1.517695
13	0xbfc511e9	-1.5396091
14	0xbe64ed65	-0.22356184
15	0x4126694f	10.40071
16	0xc0f4034d	-7.625403
17	0xbfcfcaca	-1.6233761
18	0x40c9565c	6.291792
19	0x40292aaf	2.6432302
20	0x4109a7d8	8.6034775
21	0xc0b8e62c	-5.778097
22	0x401cee4a	2.452044
23	0xc11cb422	-9.793978
24	0x408051d9	4.009991
25	0xbfdd39ad	-1.7283226
26	0x41c47d97	24.561323
27	0xbf2822ec	-0.65678287
28	0xc0618b64	-3.5241327
29	0x41222c18	10.135765
30	0x400bb8bb	2.18315
31	0x4045eb34	3.0924807
32	0xc0fec538	-7.9615746
33	0x4036b7c5	2.8549664
34	0x3fe467cf	1.784418
35	0xc0b1af41	-5.5526433
36	0x4031de9f	2.7792127
37	0x4019dfac	2.4042768
38	0xc13d7959	-11.842126
39	0xc171dd5b	-15.116542
40	0xc0bc07c4	-5.875948
41	0x40bc5c86	5.8862944
42	0xc0dbffd8	-6.874981
43	0x3f3ae240	0.7300148
44	0x418a91c6	17.321178
45	0x413e5b95	11.897359
46	0xc13feabb	-11.994807
47	0x4188361a	17.026417

layer1.1.running_var f4 [48]
0	0x426a7ee8	58.62393
1	0x3f5f2b6c	0.8717563
2	0x435a8a66	218.54062
3	0x3fa3fcde	1.2811544
4	0x3f95207e	1.1650541
5	0x43aa30c6	340.38104
6	0x433b3d80	187.24023
7	0x3fd891eb	1.6919531
8	0x4156aa2f	13.416549
9	0x3f99c2ce	1.2012575
10	0x41027350	8.153152
11	0x3f71657b	0.9429547
12	0x3f669a23	0.90078944
13	0x420f9631	35.89667
14	0x4125d701	10.364991
15	0x415db6c1	13.857118
16	0x42a85cdb	84.18136
17	0x3fe5f2a2	1.7964671
18	0x4271bd22	60.4347
19	0x418c01bf	17.500853
20	0x428a4a70	69.145386
21	0x4112ad0d	9.167249
22	0x4123a62b	10.228068
23	0x431c7af8	156.48035
24	0x41760f1d	15.37869
25	0x41c92276	25.141827
26	0x4456453e	857.0819
27	0x41994fa4	19.163887
28	0x41319401	11.098634
29	0x4319c560	153.771
30	0x42cfd436	103.914474
31	0x418d838f	17.689238
32	0x4272a5f4	60.662064
33	0x42185f40	38.093018
34	0x3f4dcdb1	0.80391985
35	0x42bde2eb	94.9432
36	0x413f8867	11.970801
37	0x3fe5509f	1.7915229
38	0x432b113c	171.06732
39	0x43aa94a9	341.1614
40	0x424ffc68	51.99649
41	0x42a846aa	84.138016
42	0x40322a14	2.7838182
43	0x4208f6b7	34.240932
44	0x43c707d7	398.06125
45	0x4362374e	226.21603
46	0x4369287a	233.15811
47	0x43ab52fa	342.64825

layer1.3.weight f4 [64, 48, 1, 1]
0	0xbea1d923	-0.31610975
1	0x3e9aea34	0.30256808
2	0x3dab488b	0.08363446
3	0xbd97ab64	-0.07405737
4	0xbe939d56	-0.28830975
5	0x3f2eb5e9	0.6824632
6	0xbf08380e	-0.5321053
7	0x3d9d0b74	0.076682
8	0x3f0b8427	0.54498523
9	0xbcb229a7	-0.021748377
10	0x3e94ec29	0.29086426
11	0x3e6b305b	0.22967665
12	0xbde3b4bc	-0.11118457
13	0xbf5cc0a2	-0.86231434
14	0xbfaf9eda	-1.3720353
15	0x3ea68cd6	0.32529324
16	0xbfc693b7	-1.5513829
17	0xbf80f462	-1.007458
18	0x3f4e27b2	0.8052932
19	0x3fb15a3f	1.3855666
20	0x3f0b8912	0.5450603
21	0x3feb642f	1.8389949
22	0xbf062e5d	-0.52414495
23	0xbe27772f	-0.16354059
24	0x3fbc8167	1.472699
25	0xbec0ec70	-0.37680387
26	0xbee16b55	-0.440272
27	0xbdf35e32	-0.11883201
28	0xbecef50c	-0.4042133
29	0x3e91803c	0.28418148
30	0x3eba591d	0.36396113
31	0x3f069287	0.52567333
32	0xbe8bab8a	-0.2727931
33	0xbeb00102	-0.3437577
34	0x3e1c38f1	0.15256096
35	0xbf7b5896	-0.98182046
36	0xbfe0963f	-1.7545851
37	0x3f14d46a	0.5813662
38	0xbe3f7829	-0.18698181
39	0xbea3074e	-0.3184151
40	0xbf984958	-1.1897383
41	0x3e4af2e1	0.19819213
42	0x3e53cf5e	0.20684573
43	0x3e877613	0.2645727
44	0x3fb318b9	1.399192
45	0xbf176806	-0.591431
46	0xbae241a1	-0.001726199
47	0x3f0af2f3	0.5427696
48	0x3dd83bf7	0.105583124
49	0xbf63317b	-0.88747376
50	0xbcfaccc0	-0.03061521
51	0xbe2be8fe	-0.16788098
52	0x4004a534	2.0725832
53	0x3e1cb1f2	0.15302256
54	0x3dd88e00	0.10573959
55	0xbf6ca752	-0.9244281
56	0xbbb32d30	-0.0054680333
57	0x3e1e1261	0.15436698
58	0xbb697ba7	-0.003562668
59	0xbfb31cde	-1.3993185
60	0x3f6f921e	0.9358233
61	0xbeb491e9	-0.3526757
62	0x3de2a472	0.11066522
63	0xbe1adef8	-0.15124118
64	0xbedf6bb2	-0.43636853
65	0x3f80ea47	1.0071496
66	0x3c854619	0.016268777
67	0xbfd32eab	-1.6498617
68	0x3e922560	0.2854414
69	0x401606fd	2.3441765
70	0xbedd9ada	-0.43282205
71	0x3ee25517	0.44205543
72	0x3d3a732c	0.045519993
73	0xbe355e81	-0.17711832
74	0xbdc87e42	-0.09789707
75	0x3e65f12d	0.22455283
76	0xbdfdc234	-0.12390557
77	0x3d162fec	0.036666796
78	0x3e052bf1	0.13005044
79	0xbc73dc0d	-0.014884007
80	0xbf6fbb34	-0.93645024
81	0x3e68699b	0.22696535
82	0xbfb4f7bd	-1.4138104
83	0x3ed16a70	0.40901518
84	0xc00d9cbd	-2.2126915
85	0xbf2966ed	-0.6617268
86	0xbf5fca06	-0.8741764
87	0x3de606f3	0.11231794
88	0x3ec09442	0.37613112
89	0x3e1a9055	0.15094121
90	0x3f7f41d5	0.99709827
91	0xbbc87f39	-0.0061186817
92	0x3ee932f0	0.45546675
93	0x3ee2c776	0.44292802
94	0x3e6b865a	0.2300047
95	0xbd11cb79	-0.035594437
96	0x3f5fbc0f	0.8739633
97	0xbd134441	-0.035953764
98	0xbfdf98cd	-1.7468506
99	0xbe85e185	-0.2614862
100	0xbd39b359	-0.045337055
101	0xbc481b32	-0.012213515
102	0xbf7c2306	-0.9849094
103	0x3dad4afe	0.08461569
104	0x3e4dc8f1	0.20096184
105	0x3f2b6009	0.66943413
106	0x3e9c709e	0.3055467
107	0x3eebbe63	0.4604369
108	0xbd07d376	-0.03316065
109	0xbf40a55b	-0.7525231
110	0xbecf882a	-0.40533572
111	0x3f911dc4	1.1337209
112	0x3f3194f6	0.6936792
113	0x3e59ed51	0.21281935
114	0x3f03dd4d	0.51509553
115	0xbf37085f	-0.7149715
116	0xbda811f1	-0.08206547
117	0x3d9e4295	0.07727543
118	0x3f4aaf7c	0.7917402
119	0xbecf2578	-0.40458274
120	0x3f870345	1.0547873
121	0xbf42e5e3	-0.7613203
122	0xc00e7072	-2.225613
123	0xbd4d6486	-0.050144695
124	0x3f40091c	0.750139
125	0xbe015d4f	-0.1263325
126	0xbf3ed033	-0.74536437
127	0xbd8ec11c	-0.069704264
128	0xbf088931	-0.5333434
129	0xbf4255e6	-0.7591232
130	0x3f28666f	0.657813
131	0x3e4601b8	0.19336593
132	0xbea69cab	-0.32541403
133	0xbe7afa5a	-0.24509564
134	0xbec233f3	-0.3793026
135	0xbf06d6f7	-0.5267176
136	0x3ef05186	0.46937197
137	0xbfd8daf3	-1.6941818
138	0xbfb0c95d	-1.3811451
139	0x3f1fdc9d	0.62446004
140	0xbe16a72c	-0.14712209
141	0xbed0c899	-0.40778044
142	0xbde38b63	-0.1111057
143	0x3e89b3f7	0.26895115
144	0x3e1a85bf	0.15090083
145	0x3e90d9ee	0.28291267
146	0x3e817e6c	0.25291765
147	0x3deca776	0.11555378
148	0xbf12330d	-0.5710915
149	0x3ff15371	1.8853589
150	0x3e22ea79	0.15909757
151	0xbd82ace6	-0.06380634
152	0xbf7410c9	-0.9533811
153	0x3ebe4d4b	0.37168345
154	0x3f9a2fbc	1.2045817
155	0x3f1c7c56	0.6112722
156	0x3e82e710	0.25566912
157	0x3f27d68b	0.6556174
158	0xbe85332b	-0.260156
159	0x3ed0a623	0.40751752
160	0xbed5b457	-0.4173915
161	0x3e9fe6f3	0.31230888
162	0x3f36ca6e	0.71402633
163	0x3ef03e26	0.46922415
164	0x3f8f7533	1.1207641
165	0xbf8f381a	-1.1188996
166	0x3f439468	0.76398325
167	0x3f79bd3e	0.97554386
168	0x3fe6f998	1.804492
169	0x3f22f6f6	0.6365808
170	0xbebc17fa	-0.36737043
171	0xbd123094	-0.03569086
172	0x3fa08cbd	1.254295
173	0xbf7aa60c	-0.9790962
174	0x3e126645	0.14296825
175	0x3c9493ce	0.018136885
176	0xbf39cbfa	-0.7257687
177	0xc006a25b	-2.1036594
178	0xbe9c459c	-0.30521858
179	0x3de83ddb	0.11339923
180	0xbe91c056	-0.28467053
181	0x3f4005df	0.7500896
182	0x3e9e2690	0.30888796
183	0xbf97c35e	-1.1856496
184	0xbf3e3672	-0.74301827
185	0x3e93f356	0.28896588
186	0xbe753dea	-0.239494
187	0x3fc8d1a1	1.5688974
188	0xbf39b972	-0.7254859
189	0x3e4df208	0.20111859
190	0xbd129807	-0.035789516
191	0xbe7bd845	-0.24594219
192	0x3ee6e8b2	0.45099407
193	0xbf101a88	-0.56290483
194	0x3f8a0da3	1.0785412
195	0x3f187241	0.5954934
196	0xbed43d7e	-0.41453165
197	0x3faabbe0	1.3338585
198	0xbf112e48	-0.56711245
199	0xbf929973	-1.1453079
200	0xbf90d65c	-1.1315417
201	0x3e9dc3c8	0.30813432
202	0x3f9ec2a8	1.2403154
203	0x3fc8a98c	1.5676742
204	0xbf311063	-0.6916563
205	0x3f9fbe9a	1.2480042
206	0x3f52f6c4	0.82407784
207	0x3ee0841a	0.43850785
208	0x3ff1b30c	1.8882766
209	0xbf85fe7f	-1.0468291
210	0xbeb28a3a	-0.34871083
211	0xbe1c46aa	-0.15261331
212	0xbd83bba8	-0.06432277
213	0x3e12e688	0.14345753
214	0x3e25376a	0.1613442
215	0x3ed1dd64	0.4098922
216	0xbddc2871	-0.10749901
217	0x3f4e2b82	0.8053514
218	0x3e90adb6	0.2825753
219	0x3f9fae82	1.247513
220	0x3f1fb750	0.6238909
221	0xbf1e39e3	-0.6180708
222	0x3f32d8c8	0.6986203
223	0x3f10fdde	0.5663737
224	0x3c939a29	0.018017845
225	0x3eccdba7	0.4001133
226	0xbe3860ad	-0.18005629
227	0x3fff6511	1.9952718
228	0x3e835da5	0.25657383
229	0x3cb2f211	0.021843942
230	0x3e69b260	0.22821951
231	0x3f2bd52c	0.6712215
232	0x3e1327ed	0.14370699
233	0x3f9febf8	1.2493887
234	0xbe188d26	-0.14897594
235	0x3edc2466	0.4299652
236	0x3f3ddfdb	0.741697
237	0x3d2fb31a	0.042895414
238	0x3fd11b43	1.6336445
239	0xbe1f8657	-0.1557859
240	0xbf29899f	-0.6622562
241	0x3df30fa2	0.11868216
242	0x3f1b59b8	0.60683775
243	0x3ec1afca	0.3782943
244	0x40007854	2.0073442
245	0x3e64664e	0.22304651
246	0x3fbec3d8	1.4903517
247	0x3e84134a	0.25795966
248	0x3e1a618a	0.1507627
249	0x3f76cfd0	0.96410847
250	0x3ec2e185	0.38062683
251	0x3ec459cd	0.38349763
252	0xbd2f472c	-0.042792484
253	0xbf428158	-0.7597861
254	0x3d0f8436	0.035038196
255	0xbf0c077d	-0.54698926

layer1.3.bias f4 [64]
0	0x3d4ac15c	0.049500808
1	0x3d337d07	0.043820407
2	0xbef63e7b	-0.48094544
3	0x3eddb3d4	0.4330126
4	0x3eb272d8	0.34853244
5	0xbe550b88	-0.2080518
6	0x3f5c282f	0.85998815
7	0xbe05d210	-0.13068414
8	0x3f6d8571	0.9278174
9	0x3d0f7209	0.03502086
10	0x3f7ea417	0.9946913
11	0xbf1933cd	-0.59844667
12	0x3eab1582	0.33414847
13	0xbe274b0c	-0.16337222
14	0x3da238d3	0.079209946
15	0x3d5f1200	0.054460526
16	0x3f11c877	0.5694651
17	0xbecbd6e5	-0.3981239
18	0x3d8840d2	0.066529885
19	0x3eb3fa8f	0.351521
20	0xbf537191	-0.82595164
21	0x3efcc44a	0.49368507
22	0x3fa87200	1.315979
23	0x3f71a2a9	0.94388825
24	0x3dbf6e7a	0.093472436
25	0xbecf5daa	-0.40501148
26	0xbcd09b01	-0.025464537
27	0xbf0fd627	-0.56186146
28	0xbbda651d	-0.0066648857
29	0x3debee28	0.11520034
30	0xbea2aa05	-0.3177034
31	0x3f05c5be	0.52254856
32	0xbd6083cb	-0.054813188
33	0x3f816c03	1.0111088
34	0x3e15fec2	0.14647964
35	0x3ebd0b7f	0.36922833
36	0x3e98b53d	0.29825774
37	0xbf299550	-0.6624346
38	0x3f728bec	0.94744754
39	0x3e8eeb81	0.2791405
40	0x3f00d889	0.50330406
41	0xbe6bbc72	-0.23021105
42	0xbe7d4094	-0.24731666
43	0x3f4f23bc	0.809139
44	0x3ec6c6b1	0.38823465
45	0xbe9758d7	-0.29559967
46	0xbef5c9b5	-0.48005453
47	0xbf71b86d	-0.94422036
48	0x3dc3f2e0	0.09567809
49	0xbc925544	-0.017862923
50	0xbee3fed9	-0.4453037
51	0xbe0f0bae	-0.13969299
52	0xbe151c61	-0.14561607
53	0xbf1e535e	-0.6184596
54	0x3f2589e7	0.6466355
55	0xbf81ee62	-1.0150874
56	0x3efa545b	0.48892483
57	0x3c708046	0.01467902
58	0xbf8aac3d	-1.0833813
59	0xbecd8a36	-0.4014451
60	0x3ea55dc5	0.32298103
61	0x3e823c2f	0.2543654
62	0xbc1a921b	-0.009434248
63	0xbecbd92d	-0.3981413

layer1.4.weight f4 [64]
0	0x3f967c12	1.1756613
1	0x3faa8f13	1.3324913
2	0x3fc0fca4	1.50771
3	0x3fcbb689	1.591508
4	0x3f5bcbf6	0.85858095
5	0x3f76b51f	0.9637012
6	0x3f4a0f85	0.7892993
7	0x3f79670f	0.9742288
8	0x40140721	2.312935
9	0x3f9be593	1.2179435
10	0x3faf8381	1.3712007
11	0x3f429611	0.76010233
12	0x3fa09c6d	1.2547737
13	0x3f944ebf	1.1586531
14	0x403bc085	2.9336255
15	0x3fc30916	1.5237148
16	0x3f7a1147	0.97682613
17	0x3f70e46b	0.9409854
18	0x3f93d27c	1.154861
19	0x3fee377c	1.8610682
20	0x3f548767	0.8301911
21	0x3f9225d0	1.141779
22	0x3f4caf4c	0.7995498
23	0x3fc06e3d	1.5033642
24	0x3f908219	1.1289703
25	0x3fae11f7	1.3599232
26	0x3f4cc45b	0.79987115
27	0x3f4df92f	0.8045835
28	0x3fb94989	1.4475566
29	0x3fe69df6	1.8016956
30	0x3f8e7eb5	1.1132418
31	0x3f89d911	1.0769368
32	0x3f990029	1.1953174
33	0x3feb636b	1.8389715
34	0x3f85e1a5	1.0459486
35	0x3fad1aeb	1.352384
36	0x3f72d5a3	0.94857234
37	0x400863ab	2.1310833
38	0x402b33f5	2.6750462
39	0x3f81cb07	1.0140084
40	0x400aafb8	2.166975
41	0x3f9e28ed	1.235624
42	0x3fd6e73b	1.6789316
43	0x3fc4ce4f	1.537546
44	0x3f639905	0.88905364
45	0x3fac2018	1.3447294
46	0x3ea6f4e9	0.32608727
47	0x40061335	2.0949223
48	0x400e0da4	2.2195826
49	0x3fcc371e	1.595432
50	0x3f9dba2b	1.2322439
51	0x3fe268aa	1.7688191
52	0x402aeebb	2.670821
53	0x3f96e716	1.1789272
54	0x3fcfc54c	1.6232085
55	0x3f7fe9df	0.99966234
56	0x3fa2b9cf	1.2712954
57	0x3f502f49	0.8132215
58	0x3f1167cf	0.56799024
59	0x404a33f8	3.159422
60	0x3f4f1d7e	0.80904377
61	0x3f1769c1	0.5914574
62	0x3f88d286	1.0689247
63	0x3fb3f8a2	1.4060252

layer1.4.bias f4 [64]
0	0x3fa5a98e	1.2942369
1	0x3fb14296	1.3848445
2	0x3f49c584	0.7881701
3	0x3fe0e9e6	1.757138
4	0x3f3adfe9	0.7299791
5	0x3f7dbafc	0.9911344
6	0x3f355106	0.70826757
7	0x3f72978e	0.94762504
8	0xbe53122d	-0.20612402
9	0x3f90a992	1.1301749
10	0x3f717a1b	0.94326943
11	0x3f028eec	0.5099933
12	0x3fbc64a8	1.4718218
13	0x3f44160f	0.7659616
14	0xbc1b9846	-0.009496754
15	0x3fc0ddd2	1.5067694
16	0x3fa40b7c	1.2816005
17	0x3f764e79	0.9621349
18	0x3f8c6a92	1.0970023
19	0x3fabc9fc	1.3421016
20	0x3f7eb8b1	0.99500567
21	0x3f1a0798	0.6016784
22	0x3f7ca4e7	0.9868912
23	0x3f9c6b4f	1.2220248
24	0x3fc03d48	1.5018702
25	0x3f169174	0.58815694
26	0x3f669d23	0.9008352
27	0x3f6d4b6c	0.9269321
28	0x3fa692e5	1.3013579
29	0x3f95341b	1.1656526
30	0x3f2dc120	0.6787281
31	0x3f6ccb95	0.9249814
32	0x3f5f19cd	0.87148744
33	0x3fab5b53	1.3387245
34	0x3ec3fdd1	0.38279584
35	0x3f8a2fe3	1.0795864
36	0x3f8e6e6d	1.1127449
37	0x3f750ec8	0.9572568
38	0xbeeb89e9	-0.46003655
39	0x3fe8acd0	1.8177738
40	0x3dcb8997	0.099383526
41	0x3f1db0dd	0.61597997
42	0x3fbc344c	1.470346
43	0x3f9ac35c	1.2090869
44	0x3f5cf3f6	0.86309755
45	0x3f9393fd	1.1529537
46	0x3f39d420	0.725893
47	0x3eade6a5	0.3396503
48	0x3f9f95da	1.2467606
49	0x3f562dbd	0.8366354
50	0x3fb1e3ed	1.3897682
51	0x3f833c9b	1.025287
52	0x3f453c3f	0.77045053
53	0x3f2f192a	0.6839777
54	0x3fb28a1a	1.3948395
55	0x3f4d5cf4	0.8021996
56	0x3f509d91	0.8149043
57	0x3f4275c7	0.75960964
58	0x3f7e7062	0.9939023
59	0xbf6524d4	-0.8950932
60	0x3f722688	0.94590044
61	0x3f6e9c8f	0.9320764
62	0x3f920f75	1.1410967
63	0x3ec144e9	0.37747887

layer1.4.running_mean f4 [64]
0	0x40384f5e	2.8798442
1	0x3ef13f67	0.47118685
2	0xc17a0b5f	-15.627776
3	0x40f2f82b	7.592794
4	0x41b51f63	22.640326
5	0x40f8af2f	7.7713847
6	0x402b4808	2.6762714
7	0xc0922b68	-4.5677986
8	0x40480310	3.125187
9	0x40aa29c9	5.3176007
10	0xc18b5809	-17.417986
11	0xc18f16d7	-17.886152
12	0xc178757e	-15.528685
13	0x3f262b1e	0.6490954
14	0x4017ca46	2.3717208
15	0x3f1c7ecd	0.6113098
16	0x414240e2	12.140841
17	0xc0962fcd	-4.693335
18	0xc10f85f8	-8.970207
19	0xc13cae09	-11.792489
20	0xc159d62b	-13.614787
21	0xc14824a8	-12.508949
22	0xc0a6bdc9	-5.210667
23	0xc10141a4	-8.078526
24	0x40f96d10	7.7945633
25	0xc09ba340	-4.863678
26	0x410b4fa2	8.706942
27	0x402cbcf2	2.6990323
28	0x40fe0873	7.9385314
29	0xc13969ac	-11.588299
30	0x411d322e	9.824751
31	0xc123b3d9	-10.231408
32	0xc080de76	-4.027156
33	0x4070ee04	3.7645273
34	0xc0d49a68	-6.6438484
35	0x3f3dcfc7	0.7414517
36	0xc12edb95	-10.928609
37	0xc10da4a5	-8.852696
38	0x409b9e75	4.863093
39	0xc09c76b0	-4.889488
40	0xc107db4d	-8.49104
41	0xc13211db	-11.129359
42	0xc1426e0b	-12.151866
43	0x41800d0b	16.006369
44	0x40f94088	7.7891273
45	0x412c3eff	10.76538
46	0xc18251a2	-16.28986
47	0xc129d17c	-10.613644
48	0xc0cc14f5	-6.377558
49	0xc13853ad	-11.520429
50	0x41516903	13.088138
51	0x40b34bdc	5.60301
52	0x412823f2	10.508776
53	0xc0c65142	-6.197419
54	0xc0f01e35	-7.5036874
55	0x40d84c4e	6.7593145
56	0xbec13bc1	-0.377409
57	0x401bb314	2.432805
58	0xc04feadc	-3.2487097
59	0xc092f7e5	-4.5927606
60	0x41a55a2e	20.669033
61	0x405fae44	3.4950113
62	0x419297b7	18.32408
63	0xc05cf318	-3.4523373

layer1.4.running_var f4 [64]
0	0x41d7c99e	26.973446
1	0x4134818c	11.281628
2	0x418760ad	16.922205
3	0x41ba83ac	23.314293
4	0x418c6379	17.54857
5	0x417dfa9e	15.873686
6	0x415eab81	13.916871
7	0x41675d8c	14.460339
8	0x41a9aa60	21.20819
9	0x417a4e36	15.644094
10	0x4186560c	16.792015
11	0x4172e46f	15.18077
12	0x4184b049	16.586077
13	0x416353b8	14.207939
14	0x4224ad1c	41.169052
15	0x41b2bdc8	22.342667
16	0x4176c76c	15.423687
17	0x41a07fc0	20.062378
18	0x4155401f	13.328155
19	0x42161866	37.523827
20	0x417286a3	15.15787
21	0x4167334c	14.450024
22	0x4174380a	15.263681
23	0x41cc89e7	25.567335
24	0x4141c202	12.109865
25	0x41b65dae	22.795742
26	0x414bf3e6	12.7470455
27	0x41470bbc	12.440365
28	0x4192e030	18.359467
29	0x41abff00	21.499512
30	0x41a528df	20.644957
31	0x41bd7135	23.680277
32	0x41ebf8b2	29.496433
33	0x4217d722	37.96009
34	0x4183d14b	16.477194
35	0x418e1143	17.758429
36	0x414539e4	12.326633
37	0x41c72354	24.89225
38	0x4267743f	57.86352
39	0x412c4c52	10.768633
40	0x41d4a3e5	26.580027
41	0x41ea326c	29.27462
42	0x41aace6a	21.350788
43	0x41cd1131	25.633394
44	0x41cf7345	25.931284
45	0x41ab9255	21.446451
46	0x41971a93	18.887976
47	0x41a25ae2	20.294376
48	0x42026815	32.601643
49	0x417fcde0	15.987762
50	0x4154486a	13.267679
51	0x41a2ff4f	20.374662
52	0x41995c15	19.169962
53	0x41430aa0	12.190094
54	0x419743fe	18.9082
55	0x415a6b58	13.651207
56	0x41ba6bf5	23.302713
57	0x41a273cd	20.306543
58	0x41615924	14.084263
59	0x41f55936	30.66856
60	0x4197ee62	18.991398
61	0x411380f1	9.21898
62	0x4237e9c7	45.9783
63	0x423bd202	46.955086

layer2.0.weight f4 [64, 1, 3, 3]
0	0x3d2e8a77	0.04261252
1	0xbf2c7284	-0.67362237
2	0xbf9b7dfe	-1.2147825
3	0xbe3a06a8	-0.18166602
4	0xbf4e5109	-0.805924
5	0xbfeb991d	-1.8406101
6	0xbe7810c2	-0.24225143
7	0xbf5ae723	-0.85508937
8	0xbf9cfe92	-1.2265189
9	0xbf10819b	-0.5644776
10	0xbee16e9e	-0.44029707
11	0xbf98e43d	-1.1944653
12	0xbea39fc3	-0.31957826
13	0xbee7a2f3	-0.45241508
14	0xbf833dcb	-1.0253233
15	0xbe65c540	-0.22438526
16	0xbf226504	-0.6343539
17	0xbfc07752	-1.5036414
18	0xbda5606c	-0.08075032
19	0xbed68798	-0.41900325
20	0x3edaa705	0.4270555
21	0x3f09f015	0.5388196
22	0x3e4270de	0.18988368
23	0x3fa66efd	1.3002621
24	0x3fa1463a	1.2599556
25	0x3f6abbea	0.91692984
26	0x3fd9cca7	1.701558
27	0xbf4e4380	-0.80571747
28	0xbf86e5fe	-1.0538938
29	0xbf9d9dfb	-1.2313837
30	0x3e2462db	0.16053335
31	0x3f138bd3	0.5763523
32	0xbe87b7fd	-0.2650756
33	0x3f787beb	0.97064084
34	0x3f472524	0.7779105
35	0x3f05f268	0.5232301
36	0xbfeaa7ca	-1.8332455
37	0xbf9dfb87	-1.2342385
38	0xbfcf1f3c	-1.6181407
39	0xbf01a52b	-0.5064265
40	0x3f0e1085	0.55493957
41	0x3c8ae856	0.01695649
42	0xbe60eeab	-0.21966045
43	0x3f308d59	0.6896568
44	0x3eb25210	0.34828234
45	0x3e85cfcd	0.26135102
46	0x3ece2e13	0.40269527
47	0x3fc8cec1	1.5688096
48	0xbe9456ec	-0.28972566
49	0x3da205a8	0.07911235
50	0x3f826b6a	1.018903
51	0xbfb8c70d	-1.4435745
52	0xbf1310a0	-0.5744724
53	0x3e6104b7	0.21974455
54	0xbf0df159	-0.5544639
55	0xbf8e08bd	-1.1096417
56	0xbf018faa	-0.5060984
57	0xbe9ae851	-0.30255368
58	0xbde7ac1e	-0.113121256
59	0x3eebf38b	0.46084246
60	0x3ef7c4d4	0.48392355
61	0x3fa08e87	1.2543496
62	0x3fee6f5c	1.8627734
63	0xbe9ee145	-0.31031242
64	0x3d2be0dd	0.041962493
65	0x3f5fb566	0.8738617
66	0xbf47a754	-0.779897
67	0x3d63aec8	0.055586606
68	0x3fca524a	1.5806363
69	0xbf6e7f8e	-0.93163383
70	0x3da0e56a	0.07856257
71	0x3fdb730d	1.7144486
72	0xbf6148b5	-0.8800157
73	0xbfbd5e2d	-1.4794365
74	0xbf7bb2eb	-0.9831988
75	0xbecd36ed	-0.40080968
76	0xbf90827a	-1.1289818
77	0xbfbb348a	-1.4625409
78	0x3e5546a3	0.20827727
79	0x3e4c8057	0.19970833
80	0xbf142ff5	-0.57885677
81	0x3f7dd155	0.9914754
82	0x3e8f5527	0.27994654
83	0x3f0a2b53	0.5397236
84	0x3e5a5643	0.21321969
85	0xbe59aae6	-0.21256599
86	0x3f034357	0.5127463
87	0x3f9bc235	1.2168642
88	0xbe0071fe	-0.12543485
89	0x3faed7b4	1.3659577
90	0x3f6065dc	0.87655425
91	0x3f5d6c6a	0.8649355
92	0xbe0953d7	-0.13410889
93	0x3fc66600	1.5499878
94	0x3f3743aa	0.7158762
95	0xbf205f3b	-0.6264531
96	0x3f8b1c10	1.0867939
97	0xbd290402	-0.041263588
98	0xbf807f1b	-1.003879
99	0x3f29bfd0	0.6630831
100	0x3efe4b07	0.49666616
101	0x3f2567fd	0.646118
102	0x3f70494a	0.9386183
103	0x3eec046b	0.4609712
104	0x3f404e35	0.75119334
105	0x3f5a2914	0.8521893
106	0x3f8340c4	1.025414
107	0x3f959ecb	1.1689085
108	0x3d3af143	0.04564024
109	0xbeddcf18	-0.43322062
110	0xbf192536	-0.59822404
111	0xbe8676c3	-0.26262483
112	0xbfd46d88	-1.6595926
113	0xbf9b1fd5	-1.2119089
114	0xbf274831	-0.6534453
115	0xbfb47b22	-1.4100077
116	0xbef91fa5	-0.48656955
117	0x3fb848b4	1.4397187
118	0x3f76f531	0.9646788
119	0x3faf7663	1.3708004
120	0xbebc880c	-0.36822546
121	0xbef199fb	-0.4718779
122	0x3f1a5d57	0.60298675
123	0xbf69fe9a	-0.91404116
124	0xbf5cf304	-0.8630831
125	0xbe1d4e6e	-0.1536195
126	0xbe875c4b	-0.264376
127	0xbf38d0c1	-0.72193533
128	0xbf374636	-0.7159151
129	0xbf1ab54e	-0.604329
130	0xbf910505	-1.1329657
131	0xbf6c3ac0	-0.92277145
132	0xbf1df85f	-0.6170711
133	0xbf8fa88d	-1.1223313
134	0xbf593b96	-0.84856546
135	0xbfacffed	-1.3515602
136	0xbf07474e	-0.5284318
137	0xbe81860c	-0.25297582
138	0xbee008a3	-0.4375659
139	0x3e8e816a	0.2783311
140	0x3f10fa02	0.5663148
141	0xbe20aa33	-0.15689926
142	0x3f23fb9c	0.640558
143	0x3fdc02fc	1.7188411
144	0x3fd3555e	1.6510427
145	0x3fc4797a	1.5349572
146	0x3f3fc3c0	0.74908066
147	0x3f1d581d	0.61462575
148	0x3e412bda	0.18864384
149	0xbed7b5fa	-0.42131025
150	0xbf035340	-0.51298904
151	0xbf7dfd9a	-0.9921509
152	0xbe5e04b7	-0.21681486
153	0x3ebc9dba	0.36839086
154	0x3ee229b3	0.4417244
155	0x3fa8314c	1.3140044
156	0xbf1c5c90	-0.6107874
157	0xbed6c12e	-0.4194426
158	0x3f078742	0.5294076
159	0xbfbbe53a	-1.4679329
160	0xbf0e9610	-0.5569773
161	0x3e9adb5e	0.3024549
162	0x3fb7dcd0	1.4364262
163	0x3f1de60b	0.6167914
164	0x3ee0c727	0.4390194
165	0x3e4b54b6	0.19856533
166	0xbac7e0d9	-0.0015249505
167	0xbec814b4	-0.39078295
168	0x3e2b2791	0.16714312
169	0xbf49a0cf	-0.78761
170	0xbfbb1414	-1.4615502
171	0x3e91e5dd	0.28495684
172	0xbf1be1a0	-0.6089115
173	0xbf980e41	-1.187935
174	0xbefa13dc	-0.48843277
175	0x3f9d7c42	1.2303545
176	0x3f70cf68	0.94066477
177	0xbf20983f	-0.6273231
178	0xbdcc7b7b	-0.099844895
179	0x3f55b4b5	0.8347886
180	0xbf87c419	-1.0606719
181	0xbf7672bd	-0.96268827
182	0xbf03f32b	-0.5154292
183	0xbf5c48b7	-0.86048454
184	0xbfd3ebb3	-1.6556305
185	0xbf0a4722	-0.5401479
186	0xbf0ba73e	-0.54552066
187	0xbea0a334	-0.31374514
188	0x3db1f05b	0.08688422
189	0x3fa53579	1.2906944
190	0x3f584b70	0.8449011
191	0x3f6e9069	0.931891
192	0x3f3baec3	0.7331354
193	0x3f85059c	1.0392337
194	0x3f51d663	0.81967753
195	0x3e31be2b	0.173577
196	0x3e79b913	0.24387006
197	0x3f15156e	0.58235824
198	0xbe86373f	-0.26214024
199	0xbd8200ae	-0.06347786
200	0x3e8ec2a5	0.27882877
201	0x3f0d011f	0.55079836
202	0x3f77195d	0.96523076
203	0x3f0242b6	0.5088304
204	0x3fa3a20a	1.2783825
205	0x3f948f0f	1.1606158
206	0x3fb8b610	1.4430561
207	0xbf741e09	-0.9535833
208	0x3e7f0561	0.24904396
209	0x3f2d4fa8	0.6769967
210	0xbf87fcb7	-1.0623997
211	0x3d0228b9	0.031777117
212	0x3f7d587a	0.9896313
213	0xbf694f97	-0.9113707
214	0xbec59e52	-0.3859735
215	0x3f8fb0fc	1.1225886
216	0xbe951bf2	-0.29122883
217	0x3eb99879	0.3624914
218	0x3ed5b905	0.4174272
219	0x3e9901f8	0.29884315
220	0x3f1a0f13	0.6017925
221	0xbf9f9f2b	-1.2470449
222	0x3d4a9a3c	0.049463496
223	0xbc320189	-0.010864624
224	0xc0529f9e	-3.2909923
225	0xbf0d9ea6	-0.55320203
226	0xbeeafe9d	-0.4589738
227	0xbf180149	-0.5937696
228	0xbf447dd9	-0.7675453
229	0xbfc6731c	-1.5503879
230	0xbf45c1e2	-0.77248967
231	0xbf513116	-0.81715524
232	0xbf01a588	-0.50643206
233	0xbf2c58fe	-0.6732329
234	0x3d7b527c	0.06135796
235	0x3f3418d8	0.7035041
236	0x3e1e0670	0.15432143
237	0x3f8a70b7	1.0815648
238	0x3fec90ca	1.8481686
239	0x3f14e843	0.58166903
240	0x3d09a3b7	0.033603396
241	0x3f3209bd	0.6954611
242	0x3f956846	1.1672447
243	0xbf49482d	-0.78625757
244	0xbbbba2a2	-0.0057261745
245	0x3f8c6e60	1.0971184
246	0xbf69bc29	-0.91302735
247	0xbf1b191a	-0.60585177
248	0x3c3badb1	0.0114549855
249	0xbfa9ba7a	-1.3260033
250	0xbfb4f8ec	-1.4138465
251	0xbef466a2	-0.47734553
252	0xbf8df6c6	-1.1090934
253	0xbf527422	-0.82208455
254	0xbf19cdc2	-0.60079587
255	0xbf2d08fd	-0.6759184

layer2.0.bias f4 [64]
0	0xbe59966e	-0.2124879
1	0xbe4ae91a	-0.19815484
2	0x3e46ac73	0.19401722
3	0xbe4584f2	-0.19288996
4	0xbe0d436c	-0.1379525
5	0x3ca5eb2b	0.020253738
6	0x3e1668d0	0.1468842
7	0xbf1a0d1a	-0.6017624
8	0x3f2fd9cf	0.68691725
9	0xbe9546f9	-0.2915571
10	0x3edcfd49	0.4316199
11	0xbf7f2720	-0.99669075
12	0xbf3aaf8a	-0.729241
13	0x3ea72a50	0.3264947
14	0x3eb43a7b	0.35200867
15	0x3edc8d2f	0.43076465
16	0x3f2b1e6a	0.66843283
17	0xbf042a42	-0.5162698
18	0xbe16e4cc	-0.14735717
19	0x3e7debdf	0.24797009
20	0x3ee40dd0	0.44541788
21	0x3f0644e3	0.5244886
22	0xbdbce373	-0.0922307
23	0xbc4161ba	-0.011803085
24	0x3f3c351e	0.7351855
25	0x3f0e3bbe	0.5555991
26	0x3d35c1a0	0.04437411
27	0x3d898631	0.06715048
28	0x3e17ca16	0.14823183
29	0x3f8c5b87	1.0965432
30	0x3e0db951	0.13840224
31	0xbebd7422	-0.37002665
32	0x3e95fbfa	0.29293805
33	0xbe49e3b9	-0.19715776
34	0x3ec2ed35	0.380716
35	0xbf37bf5b	-0.7177636
36	0x3f0eef7a	0.5583416
37	0xbec673b8	-0.3876016
38	0x3f09c346	0.5381359
39	0x3df18fd2	0.1179501
40	0xbe89bf4d	-0.26903763
41	0xbf3431d5	-0.7038854
42	0x3f394fff	0.7238769
43	0x3f1c0bf9	0.6095577
44	0x3e956923	0.29181775
45	0x3f6253be	0.8840903
46	0x3fe5586d	1.791761
47	0x3f31a187	0.69387096
48	0x3f262065	0.6489318
49	0x3ce1e171	0.02757332
50	0x3dfa566a	0.122235134
51	0x3eb86e36	0.36021584
52	0x3ca06ded	0.019583667
53	0x3f0f660a	0.56015074
54	0x3ea5c71b	0.32378468
55	0xbf28e5c2	-0.6597558
56	0xbe4edfcc	-0.20202559
57	0x3e9d9c9a	0.3078354
58	0x3f135648	0.5755353
59	0xbefd9fdb	-0.49536023
60	0x3da6f26f	0.08151709
61	0xbebbf57c	-0.36710727
62	0xbc9ac18a	-0.018891115
63	0xbe486b3b	-0.19572155

layer2.1.weight f4 [64]
0	0x3f700471	0.9375678
1	0x3f386af4	0.720382
2	0x3f9b540a	1.2135022
3	0x3f3415d4	0.7034581
4	0x3f500a8b	0.8126609
5	0x3f428e2f	0.75998205
6	0x3f2cb5b6	0.6746477
7	0x3f337570	0.7010107
8	0x3f2c9269	0.67410904
9	0x3f8ed533	1.1158813
10	0x3f498450	0.7871752
11	0x3f4eb447	0.8074383
12	0x4015c922	2.3404012
13	0x3f29508e	0.6613854
14	0x3f7cb54e	0.9871415
15	0x3f4780f0	0.7793112
16	0x3f6dbad0	0.9286318
17	0x3f4402ca	0.76566756
18	0x3f1d3e0b	0.61422795
19	0x3f476bdf	0.77898973
20	0x3f3bd401	0.7337037
21	0x3f372aff	0.7154998
22	0x3f32e1ac	0.698756
23	0x3f416c3e	0.7555579
24	0x3f2c18af	0.67225164
25	0x3f7d202c	0.98877215
26	0x3f780233	0.96878356
27	0x3f2c8aff	0.6739959
28	0x3f1d2f10	0.61399937
29	0x3f8050b0	1.0024624
30	0x3f3843f5	0.71978694
31	0x3f4429c3	0.76626223
32	0x3f6cf69d	0.925638
33	0x3ff43d36	1.908118
34	0x3f1ec635	0.6202119
35	0x3f553611	0.83285624
36	0x3f48ffbc	0.7851522
37	0x3f8dbf43	1.1073993
38	0x3f8fb49b	1.1226991
39	0x3f1e3eaf	0.618144
40	0x3f6ae5fa	0.91757166
41	0x3f6ffa0f	0.93740934
42	0x3f4e08cb	0.80482167
43	0x3f522599	0.8208862
44	0x3f8f817c	1.121139
45	0x3f613061	0.87964445
46	0x3f9b765d	1.2145497
47	0x3f1dfd73	0.6171486
48	0x3f96359a	1.1735108
49	0x3f16602a	0.58740485
50	0x3f2febe0	0.6871929
51	0x3f37fb3c	0.7186773
52	0x3f80b48b	1.0055097
53	0x3f2e82a5	0.681681
54	0x3f302330	0.6880369
55	0x3f539cdb	0.8266122
56	0x3f34777d	0.70494825
57	0x3f646a5e	0.89224803
58	0x3f33910c	0.701432
59	0x3f59b99a	0.8504883
60	0x3fd21754	1.6413369
61	0x3f478e05	0.7795108
62	0x3fe83538	1.8141241
63	0x3f890712	1.0705283

layer2.1.bias f4 [64]
0	0x406a0dc5	3.6570904
1	0x3f3752ee	0.71610916
2	0x3f0cff1c	0.55076766
3	0x3fc45c82	1.5340731
4	0x3f947006	1.1596687
5	0x4017e7bd	2.3735192
6	0x400a4b7c	2.1608572
7	0x3f641cfe	0.8910674
8	0x40091b78	2.1423016
9	0xbf0ba6eb	-0.5455157
10	0x3f2ff194	0.68727994
11	0x3f9c6e6f	1.2221202
12	0xbf799e22	-0.97506917
13	0x3f5ef08b	0.8708579
14	0x400d020a	2.2032495
15	0x400c38fe	2.1909785
16	0x3fb80b1e	1.4378393
17	0x40216075	2.5215123
18	0x3fee052f	1.8595332
19	0x3e1669bb	0.1468877
20	0x3f826866	1.018811
21	0x3f067340	0.5251961
22	0x3f2dd0b5	0.67896587
23	0x3fc590cc	1.5434813
24	0x3fb9f0de	1.4526632
25	0x4032eab1	2.7955744
26	0x3d7d7fbc	0.061889395
27	0x407c0aa4	3.9381495
28	0x3f89f9ba	1.0779335
29	0x3f870139	1.0547248
30	0x3f7f0713	0.9962017
31	0x3faee6c7	1.3664178
32	0x40223282	2.5343328
33	0xbf315ab7	-0.69279045
34	0x3eb60f64	0.35558617
35	0x3f912c76	1.1341693
36	0x401240e8	2.2852116
37	0x3fac71e9	1.3472263
38	0x3fe3eb4d	1.7806183
39	0x3ff92f06	1.9467475
40	0x3f62be28	0.88571405
41	0x3c1ac55f	0.009446471
42	0x407a7b07	3.913759
43	0x3f6c24e8	0.92243814
44	0xbd95b9c3	-0.07310822
45	0x400f0a9a	2.235022
46	0xbe6ae6f6	-0.22939667
47	0x3fc12d12	1.5091879
48	0x402c0043	2.687516
49	0x4064297f	3.5650327
50	0x3f0bb051	0.5456591
51	0x4031b984	2.776948
52	0x3ef67b23	0.4814082
53	0x3fc568d5	1.5422617
54	0x4036e93b	2.8579853
55	0x3febd659	1.8424789
56	0x3fdbf9af	1.7185572
57	0x3eecb093	0.46228465
58	0x400062ca	2.0060296
59	0x400cc1d7	2.199331
60	0xbf8fc2b6	-1.1231296
61	0x3ff44f82	1.9086764
62	0xbf295e44	-0.6615946
63	0xbb37cacf	-0.0028044467
